{
    "run_name": "depthwisecnn(64,64)[3] bilstm(64,64) size with layer normalization",
    "timestamp": "2025-11-20 08:26:39",
    "manual_notes": "",
    "model_pipeline": "URLBinaryCNN(\n  (embeding_layer): ModuleDict(\n    (embeding): Embeding_layer(\n      (embedding): Embedding(97, 256)\n      (pos_embedding): Embedding(60, 256)\n      (final_norm): LayerNorm((256,), eps=1e-05, elementwise_affine=True)\n      (projection): Linear(in_features=256, out_features=64, bias=True)\n    )\n  )\n  (shared_layer): ModuleDict(\n    (conv): ResidualConvBlockDW(\n      (branches): ModuleList(\n        (0): Sequential(\n          (0): Conv1d(64, 8, kernel_size=(1,), stride=(1,), bias=False)\n          (1): ReLU(inplace=True)\n          (2): Dropout1d(p=0.5, inplace=False)\n          (3): Conv1d(8, 8, kernel_size=(3,), stride=(1,), padding=(1,), groups=8, bias=False)\n          (4): ReLU(inplace=True)\n          (5): Dropout1d(p=0.5, inplace=False)\n          (6): Conv1d(8, 64, kernel_size=(1,), stride=(1,), bias=False)\n          (7): ReLU(inplace=True)\n        )\n      )\n      (merge_conv): Conv1d(64, 64, kernel_size=(1,), stride=(1,), bias=False)\n      (se): SEBlock(\n        (fc1): Linear(in_features=64, out_features=4, bias=True)\n        (dropout): Dropout(p=0.25, inplace=False)\n        (fc2): Linear(in_features=4, out_features=64, bias=True)\n        (sigmoid): Sigmoid()\n      )\n      (shortcut): Identity()\n    )\n    (bilstm): LSTM(64, 64, batch_first=True, bidirectional=True)\n    (layer_norm): LayerNorm((128,), eps=1e-05, elementwise_affine=True)\n    (fc1): Linear(in_features=7680, out_features=64, bias=True)\n    (relu1): ReLU()\n    (dropout1): Dropout(p=0.5, inplace=False)\n  )\n  (personal_layer): ModuleDict(\n    (fc2): Linear(in_features=64, out_features=64, bias=True)\n    (relu2): ReLU()\n    (dropout2): Dropout(p=0.5, inplace=False)\n    (head): Linear(in_features=64, out_features=1, bias=True)\n  )\n)",
    "model_layers": {
        "embedding_layer_params": 57152,
        "shared_layer_params": 564124,
        "personal_layer_params": 4225
    },
    "trainable_parameters": 625501,
    "total_parameters": 625501,
    "global_parameter_count": 26,
    "personal_parameter_count": 4,
    "global_optimizer": "NAdam (\nParameter Group 0\n    betas: (0.9, 0.999)\n    capturable: False\n    decoupled_weight_decay: False\n    differentiable: False\n    eps: 1e-08\n    foreach: None\n    lr: 0.001\n    maximize: False\n    momentum_decay: 0.004\n    weight_decay: 0.0001\n)",
…
